[2021/09/30 11:05:56][INFO] arguments:C:/Users/301-0004/PycharmProjects/pythonProject/pytorch-hair-segmentation-master/main.py
[2021/09/30 11:05:58][INFO] ----------------------------------------------------------------
[2021/09/30 11:05:58][INFO]         Layer (type)               Output Shape         Param #
[2021/09/30 11:05:58][INFO] ================================================================
[2021/09/30 11:05:58][INFO]             Conv2d-1          [4, 32, 128, 128]             864
[2021/09/30 11:05:58][INFO]        BatchNorm2d-2          [4, 32, 128, 128]              64
[2021/09/30 11:05:58][INFO]               ReLU-3          [4, 32, 128, 128]               0
[2021/09/30 11:05:58][INFO]             Conv2d-4          [4, 32, 128, 128]             288
[2021/09/30 11:05:58][INFO]        BatchNorm2d-5          [4, 32, 128, 128]              64
[2021/09/30 11:05:58][INFO]               ReLU-6          [4, 32, 128, 128]               0
[2021/09/30 11:05:58][INFO]             Conv2d-7          [4, 64, 128, 128]           2,048
[2021/09/30 11:05:58][INFO]        BatchNorm2d-8          [4, 64, 128, 128]             128
[2021/09/30 11:05:58][INFO]               ReLU-9          [4, 64, 128, 128]               0
[2021/09/30 11:05:58][INFO]            Conv2d-10            [4, 64, 64, 64]             576
[2021/09/30 11:05:58][INFO]       BatchNorm2d-11            [4, 64, 64, 64]             128
[2021/09/30 11:05:58][INFO]              ReLU-12            [4, 64, 64, 64]               0
[2021/09/30 11:05:58][INFO]            Conv2d-13           [4, 128, 64, 64]           8,192
[2021/09/30 11:05:58][INFO]       BatchNorm2d-14           [4, 128, 64, 64]             256
[2021/09/30 11:05:58][INFO]              ReLU-15           [4, 128, 64, 64]               0
[2021/09/30 11:05:58][INFO]            Conv2d-16           [4, 128, 64, 64]           1,152
[2021/09/30 11:05:58][INFO]       BatchNorm2d-17           [4, 128, 64, 64]             256
[2021/09/30 11:05:58][INFO]              ReLU-18           [4, 128, 64, 64]               0
[2021/09/30 11:05:58][INFO]            Conv2d-19           [4, 128, 64, 64]          16,384
[2021/09/30 11:05:58][INFO]       BatchNorm2d-20           [4, 128, 64, 64]             256
[2021/09/30 11:05:58][INFO]              ReLU-21           [4, 128, 64, 64]               0
[2021/09/30 11:05:58][INFO]            Conv2d-22           [4, 128, 32, 32]           1,152
[2021/09/30 11:05:58][INFO]       BatchNorm2d-23           [4, 128, 32, 32]             256
[2021/09/30 11:05:58][INFO]              ReLU-24           [4, 128, 32, 32]               0
[2021/09/30 11:05:58][INFO]            Conv2d-25           [4, 256, 32, 32]          32,768
[2021/09/30 11:05:58][INFO]       BatchNorm2d-26           [4, 256, 32, 32]             512
[2021/09/30 11:05:58][INFO]              ReLU-27           [4, 256, 32, 32]               0
[2021/09/30 11:05:58][INFO]            Conv2d-28           [4, 256, 32, 32]           2,304
[2021/09/30 11:05:58][INFO]       BatchNorm2d-29           [4, 256, 32, 32]             512
[2021/09/30 11:05:58][INFO]              ReLU-30           [4, 256, 32, 32]               0
[2021/09/30 11:05:58][INFO]            Conv2d-31           [4, 256, 32, 32]          65,536
[2021/09/30 11:05:58][INFO]       BatchNorm2d-32           [4, 256, 32, 32]             512
[2021/09/30 11:05:58][INFO]              ReLU-33           [4, 256, 32, 32]               0
[2021/09/30 11:05:58][INFO]            Conv2d-34           [4, 256, 16, 16]           2,304
[2021/09/30 11:05:58][INFO]       BatchNorm2d-35           [4, 256, 16, 16]             512
[2021/09/30 11:05:58][INFO]              ReLU-36           [4, 256, 16, 16]               0
[2021/09/30 11:05:58][INFO]            Conv2d-37           [4, 512, 16, 16]         131,072
[2021/09/30 11:05:58][INFO]       BatchNorm2d-38           [4, 512, 16, 16]           1,024
[2021/09/30 11:05:58][INFO]              ReLU-39           [4, 512, 16, 16]               0
[2021/09/30 11:05:58][INFO]            Conv2d-40           [4, 512, 16, 16]           4,608
[2021/09/30 11:05:58][INFO]       BatchNorm2d-41           [4, 512, 16, 16]           1,024
[2021/09/30 11:05:58][INFO]              ReLU-42           [4, 512, 16, 16]               0
[2021/09/30 11:05:58][INFO]            Conv2d-43           [4, 512, 16, 16]         262,144
[2021/09/30 11:05:58][INFO]       BatchNorm2d-44           [4, 512, 16, 16]           1,024
[2021/09/30 11:05:58][INFO]              ReLU-45           [4, 512, 16, 16]               0
[2021/09/30 11:05:58][INFO]            Conv2d-46           [4, 512, 16, 16]           4,608
[2021/09/30 11:05:58][INFO]       BatchNorm2d-47           [4, 512, 16, 16]           1,024
[2021/09/30 11:05:58][INFO]              ReLU-48           [4, 512, 16, 16]               0
[2021/09/30 11:05:58][INFO]            Conv2d-49           [4, 512, 16, 16]         262,144
[2021/09/30 11:05:58][INFO]       BatchNorm2d-50           [4, 512, 16, 16]           1,024
[2021/09/30 11:05:58][INFO]              ReLU-51           [4, 512, 16, 16]               0
[2021/09/30 11:05:58][INFO]            Conv2d-52           [4, 512, 16, 16]           4,608
[2021/09/30 11:05:58][INFO]       BatchNorm2d-53           [4, 512, 16, 16]           1,024
[2021/09/30 11:05:58][INFO]              ReLU-54           [4, 512, 16, 16]               0
[2021/09/30 11:05:58][INFO]            Conv2d-55           [4, 512, 16, 16]         262,144
[2021/09/30 11:05:58][INFO]       BatchNorm2d-56           [4, 512, 16, 16]           1,024
[2021/09/30 11:05:58][INFO]              ReLU-57           [4, 512, 16, 16]               0
[2021/09/30 11:05:58][INFO]            Conv2d-58           [4, 512, 16, 16]           4,608
[2021/09/30 11:05:58][INFO]       BatchNorm2d-59           [4, 512, 16, 16]           1,024
[2021/09/30 11:05:58][INFO]              ReLU-60           [4, 512, 16, 16]               0
[2021/09/30 11:05:58][INFO]            Conv2d-61           [4, 512, 16, 16]         262,144
[2021/09/30 11:05:58][INFO]       BatchNorm2d-62           [4, 512, 16, 16]           1,024
[2021/09/30 11:05:58][INFO]              ReLU-63           [4, 512, 16, 16]               0
[2021/09/30 11:05:58][INFO]            Conv2d-64           [4, 512, 16, 16]           4,608
[2021/09/30 11:05:58][INFO]       BatchNorm2d-65           [4, 512, 16, 16]           1,024
[2021/09/30 11:05:58][INFO]              ReLU-66           [4, 512, 16, 16]               0
[2021/09/30 11:05:58][INFO]            Conv2d-67           [4, 512, 16, 16]         262,144
[2021/09/30 11:05:58][INFO]       BatchNorm2d-68           [4, 512, 16, 16]           1,024
[2021/09/30 11:05:58][INFO]              ReLU-69           [4, 512, 16, 16]               0
[2021/09/30 11:05:58][INFO]            Conv2d-70             [4, 512, 8, 8]           4,608
[2021/09/30 11:05:58][INFO]       BatchNorm2d-71             [4, 512, 8, 8]           1,024
[2021/09/30 11:05:58][INFO]              ReLU-72             [4, 512, 8, 8]               0
[2021/09/30 11:05:58][INFO]            Conv2d-73            [4, 1024, 8, 8]         524,288
[2021/09/30 11:05:58][INFO]       BatchNorm2d-74            [4, 1024, 8, 8]           2,048
[2021/09/30 11:05:58][INFO]              ReLU-75            [4, 1024, 8, 8]               0
[2021/09/30 11:05:58][INFO]            Conv2d-76            [4, 1024, 8, 8]           9,216
[2021/09/30 11:05:58][INFO]       BatchNorm2d-77            [4, 1024, 8, 8]           2,048
[2021/09/30 11:05:58][INFO]              ReLU-78            [4, 1024, 8, 8]               0
[2021/09/30 11:05:58][INFO]            Conv2d-79            [4, 1024, 8, 8]       1,048,576
[2021/09/30 11:05:58][INFO]       BatchNorm2d-80            [4, 1024, 8, 8]           2,048
[2021/09/30 11:05:58][INFO]              ReLU-81            [4, 1024, 8, 8]               0
[2021/09/30 11:05:58][INFO]            Conv2d-82            [4, 1024, 8, 8]           9,216
[2021/09/30 11:05:58][INFO]       BatchNorm2d-83            [4, 1024, 8, 8]           2,048
[2021/09/30 11:05:58][INFO]              ReLU-84            [4, 1024, 8, 8]               0
[2021/09/30 11:05:58][INFO]            Conv2d-85            [4, 1024, 8, 8]       1,048,576
[2021/09/30 11:05:58][INFO]       BatchNorm2d-86            [4, 1024, 8, 8]           2,048
[2021/09/30 11:05:58][INFO]              ReLU-87            [4, 1024, 8, 8]               0
[2021/09/30 11:05:58][INFO]       YellowBlock-88          [4, 1024, 16, 16]               0
[2021/09/30 11:05:58][INFO]            Conv2d-89          [4, 1536, 16, 16]          13,824
[2021/09/30 11:05:58][INFO]            Conv2d-90            [4, 64, 16, 16]          98,304
[2021/09/30 11:05:58][INFO]   SeparableConv2d-91            [4, 64, 16, 16]               0
[2021/09/30 11:05:58][INFO]              ReLU-92            [4, 64, 16, 16]               0
[2021/09/30 11:05:58][INFO]       OrangeBlock-93            [4, 64, 16, 16]               0
[2021/09/30 11:05:58][INFO]       YellowBlock-94            [4, 64, 32, 32]               0
[2021/09/30 11:05:58][INFO]            Conv2d-95           [4, 320, 32, 32]           2,880
[2021/09/30 11:05:58][INFO]            Conv2d-96            [4, 64, 32, 32]          20,480
[2021/09/30 11:05:58][INFO]   SeparableConv2d-97            [4, 64, 32, 32]               0
[2021/09/30 11:05:58][INFO]              ReLU-98            [4, 64, 32, 32]               0
[2021/09/30 11:05:58][INFO]       OrangeBlock-99            [4, 64, 32, 32]               0
[2021/09/30 11:05:58][INFO]      YellowBlock-100            [4, 64, 64, 64]               0
[2021/09/30 11:05:58][INFO]           Conv2d-101           [4, 192, 64, 64]           1,728
[2021/09/30 11:05:58][INFO]           Conv2d-102            [4, 64, 64, 64]          12,288
[2021/09/30 11:05:58][INFO]  SeparableConv2d-103            [4, 64, 64, 64]               0
[2021/09/30 11:05:58][INFO]             ReLU-104            [4, 64, 64, 64]               0
[2021/09/30 11:05:58][INFO]      OrangeBlock-105            [4, 64, 64, 64]               0
[2021/09/30 11:05:58][INFO]      YellowBlock-106          [4, 64, 128, 128]               0
[2021/09/30 11:05:58][INFO]           Conv2d-107         [4, 128, 128, 128]           1,152
[2021/09/30 11:05:58][INFO]           Conv2d-108          [4, 64, 128, 128]           8,192
[2021/09/30 11:05:58][INFO]  SeparableConv2d-109          [4, 64, 128, 128]               0
[2021/09/30 11:05:58][INFO]             ReLU-110          [4, 64, 128, 128]               0
[2021/09/30 11:05:58][INFO]      OrangeBlock-111          [4, 64, 128, 128]               0
[2021/09/30 11:05:58][INFO]      YellowBlock-112          [4, 64, 256, 256]               0
[2021/09/30 11:05:58][INFO]           Conv2d-113          [4, 64, 256, 256]             576
[2021/09/30 11:05:58][INFO]           Conv2d-114          [4, 64, 256, 256]           4,096
[2021/09/30 11:05:58][INFO]  SeparableConv2d-115          [4, 64, 256, 256]               0
[2021/09/30 11:05:58][INFO]             ReLU-116          [4, 64, 256, 256]               0
[2021/09/30 11:05:58][INFO]      OrangeBlock-117          [4, 64, 256, 256]               0
[2021/09/30 11:05:58][INFO]           Conv2d-118           [4, 1, 256, 256]              65
[2021/09/30 11:05:58][INFO] ================================================================
[2021/09/30 11:05:58][INFO] Total params: 4,432,449
[2021/09/30 11:05:58][INFO] Trainable params: 4,432,449
[2021/09/30 11:05:58][INFO] Non-trainable params: 0
[2021/09/30 11:05:58][INFO] ----------------------------------------------------------------
[2021/09/30 11:05:58][INFO] Input size (MB): 3.00
[2021/09/30 11:05:58][INFO] Forward/backward pass size (MB): 1715.00
…
